…
2024-04-29 16:21:02.996162: W tensorflow/core/framework/cpu_allocator_impl.cc:82] Allocation of 1898459136 exceeds 10% of free system memory.
2024-04-29 16:21:04.933634: I tensorflow/stream_executor/cuda/cuda_dnn.cc:366] Loaded cuDNN version 8302
2024-04-29 16:21:06.553930: I tensorflow/stream_executor/cuda/cuda_blas.cc:1774] TensorFloat-32 will be used for the matrix multiplication. This will only be logged once.
0
2.7.0
Model: "sequential"
_________________________________________________________________
 Layer (type)                Output Shape              Param #   
=================================================================
 conv2d (Conv2D)             (None, 112, 112, 32)      2432      
                                                                 
 batch_normalization (BatchN  (None, 112, 112, 32)     128       
 ormalization)                                                   
                                                                 
 max_pooling2d (MaxPooling2D  (None, 56, 56, 32)       0         
 )                                                               
                                                                 
 dropout (Dropout)           (None, 56, 56, 32)        0         
                                                                 
 conv2d_1 (Conv2D)           (None, 56, 56, 64)        51264     
                                                                 
 batch_normalization_1 (Batc  (None, 56, 56, 64)       256       
 hNormalization)                                                 
                                                                 
 max_pooling2d_1 (MaxPooling  (None, 28, 28, 64)       0         
 2D)                                                             
                                                                 
 dropout_1 (Dropout)         (None, 28, 28, 64)        0         
                                                                 
 conv2d_2 (Conv2D)           (None, 28, 28, 128)       204928    
                                                                 
 batch_normalization_2 (Batc  (None, 28, 28, 128)      512       
 hNormalization)                                                 
                                                                 
 max_pooling2d_2 (MaxPooling  (None, 14, 14, 128)      0         
 2D)                                                             
                                                                 
 dropout_2 (Dropout)         (None, 14, 14, 128)       0         
                                                                 
 conv2d_3 (Conv2D)           (None, 14, 14, 256)       819456    
                                                                 
 batch_normalization_3 (Batc  (None, 14, 14, 256)      1024      
 hNormalization)                                                 
                                                                 
 max_pooling2d_3 (MaxPooling  (None, 7, 7, 256)        0         
 2D)                                                             
                                                                 
 dropout_3 (Dropout)         (None, 7, 7, 256)         0         
                                                                 
 conv2d_4 (Conv2D)           (None, 7, 7, 512)         3277312   
                                                                 
 batch_normalization_4 (Batc  (None, 7, 7, 512)        2048      
 hNormalization)                                                 
                                                                 
 max_pooling2d_4 (MaxPooling  (None, 3, 3, 512)        0         
 2D)                                                             
                                                                 
 dropout_4 (Dropout)         (None, 3, 3, 512)         0         
                                                                 
 flatten (Flatten)           (None, 4608)              0         
                                                                 
 dense (Dense)               (None, 512)               2359808   
                                                                 
 dropout_5 (Dropout)         (None, 512)               0         
                                                                 
 dense_1 (Dense)             (None, 256)               131328    
                                                                 
 dropout_6 (Dropout)         (None, 256)               0         
                                                                 
 dense_2 (Dense)             (None, 2)                 514       
                                                                 
=================================================================
Total params: 6,851,010
Trainable params: 6,849,026
Non-trainable params: 1,984
_________________________________________________________________
X_train: (12612, 112, 112, 3),y_train :(12612, 2)
Epoch 1/100
  1/198 [..............................] - ETA: 13:
…
