python main.py
Wed May  1 01:04:42 AM EDT 2024

"features extraction"

Model: "sequential"
_________________________________________________________________
 Layer (type)                Output Shape              Param #   
=================================================================
 conv2d (Conv2D)             (None, 150, 150, 32)      2432      
                                                                 
 max_pooling2d (MaxPooling2D  (None, 75, 75, 32)       0         
 )                                                               
                                                                 
 conv2d_1 (Conv2D)           (None, 75, 75, 64)        51264     
                                                                 
 max_pooling2d_1 (MaxPooling  (None, 37, 37, 64)       0         
 2D)                                                             
                                                                 
 conv2d_2 (Conv2D)           (None, 37, 37, 64)        102464    
                                                                 
 max_pooling2d_2 (MaxPooling  (None, 18, 18, 64)       0         
 2D)                                                             
                                                                 
 conv2d_3 (Conv2D)           (None, 18, 18, 128)       204928    
                                                                 
 max_pooling2d_3 (MaxPooling  (None, 9, 9, 128)        0         
 2D)                                                             
                                                                 
 conv2d_4 (Conv2D)           (None, 9, 9, 256)         819456    
                                                                 
 max_pooling2d_4 (MaxPooling  (None, 4, 4, 256)        0         
 2D)                                                             
                                                                 
 conv2d_5 (Conv2D)           (None, 4, 4, 512)         3277312   
                                                                 
 max_pooling2d_5 (MaxPooling  (None, 2, 2, 512)        0         
 2D)                                                             
                                                                 
 dense (Dense)               (None, 2, 2, 8000)        4104000   
                                                                 
 dense_1 (Dense)             (None, 2, 2, 1024)        8193024   
                                                                 
 dense_2 (Dense)             (None, 2, 2, 2048)        2099200   
                                                                 
 max_pooling2d_6 (MaxPooling  (None, 1, 1, 2048)       0         
 2D)                                                             
                                                                 
=================================================================
Total params: 18,854,080
Trainable params: 18,854,080
Non-trainable params: 0
_________________________________________________________________
Frame features in train set: (1948, 20, 2048)
Frame masks in train set: (1948, 20)
…
 Layer (type)                   Output Shape         Param #     Connected to                     
==================================================================================================
 input_1 (InputLayer)           [(None, 20, 2048)]   0           []                               
                                                                                                  
 input_2 (InputLayer)           [(None, 20)]         0           []                               
                                                                                                  
 gru (GRU)                      (None, 20, 16)       99168       ['input_1[0][0]',                
                                                                  'input_2[0][0]']                
                                                                                                  
 gru_1 (GRU)                    (None, 8)            624         ['gru[0][0]']                    
                                                                                                  
 dropout (Dropout)              (None, 8)            0           ['gru_1[0][0]']                  
                                                                                                  
 dense (Dense)                  (None, 8)            72          ['dropout[0][0]']                
                                                                                                  
 dense_1 (Dense)                (None, 2)            18          ['dense[0][0]']                  
                                                                                                  
==================================================================================================
Total params: 99,882
Trainable params: 99,882
Non-trainable params: 0
__________________________________________________________________________________________________
…
